RealAnalysis/Para/DermaMNIST.pth (torch, 51490 bytes, 14 tensors)

features.0.weight f4 [6, 3, 5, 5]
000000 26 82 82 3e 3a 3b 87 3e 62 4d f3 bc 18 e4 d4 bd
       0.2548992 0.26412374 -0.029699985 -0.10395068
000010 75 13 8c bd db bf 5e 3e 85 81 bf 3d 32 15 fe 3c
       -0.06839649 0.21752875 0.09350876 0.031015966
000020 1e f8 d6 bd d6 17 5d bd 8b aa d0 3c 45 88 6f bd
       -0.10496543 -0.05397781 0.025471946 -0.058479566
000030 aa 98 6b be bb af 3d be 2f c0 2e be 13 e1 8f 3a
       -0.23007455 -0.18524067 -0.170655 0.0010977112
000040 de 9c 81 bd db 6e 0c bd 2d 1f 22 be 83 7b 40 be
       -0.06328748 -0.034285408 -0.15832205 -0.18797116
000050 76 15 af 3d f9 dc 7b 3c 8a 36 ee bd cc da 67 bc
       0.08549015 0.015372508 -0.11631496 -0.014151286
000060 0e 8c 15 be b7 a1 8a 3e 7c 65 a1 3e 16 54 87 bd
       -0.14604208 0.27076504 0.3152274 -0.06607835
000070 f2 e5 26 be 46 12 21 be 5a 0d 08 3e 1e c2 3c 3e
       -0.16298655 -0.15729627 0.13286343 0.18433425
000080 7d 1c 42 be 10 92 79 be 4d 7d 92 be 6d 14 ca bd
       -0.1895618 -0.24372125 -0.28611222 -0.09867177
000090 86 54 20 be fc af ca bd 9f d0 f7 bd b4 c1 24 be
       -0.15657243 -0.098968476 -0.12100338 -0.16089517
0000a0 4d 70 9d bd 97 58 7f be 19 12 e9 bd e7 57 29 be
       -0.07687435 -0.24936138 -0.11380405 -0.16537438
0000b0 75 70 81 be c9 14 8d bd 6e fc 6f bd 5f 84 1f bd
       -0.2528111 -0.0688873 -0.058590345 -0.0389446
0000c0 b4 b3 f6 bd 28 3b 0f be 30 87 a3 3e 00 51 a5 3e
       -0.120459944 -0.1398741 0.31939077 0.3228836
0000d0 74 ed d7 3d 98 0e c2 bc ef 06 62 3c 62 66 e1 3d
       0.105433375 -0.0236886 0.013795598 0.11005856
0000e0 a3 ac fb 3d f4 96 21 be d3 57 3e be 0a 70 23 be
       0.12288787 -0.1578024 -0.1858819 -0.15960708
0000f0 da 30 af 3d 1d 08 b5 3b 72 01 38 be 90 2f 37 bc
       0.085542396 0.005524649 -0.17969301 -0.011180773
000100 d4 d1 63 3c 64 10 4b bd 9b be cb bd f1 38 93 3c
       0.013905007 -0.04957618 -0.099484645 0.017971488
000110 e3 7c 3e 3e 5e 18 07 3e fb 4c 37 bd ce 58 b1 bd
       0.18602328 0.13192889 -0.04475115 -0.08659516
000120 a6 2d 8c 3d 68 1e 3b 3e c9 20 1f 3e b3 a6 02 3e
       0.06844644 0.18273318 0.1553985 0.12758903
000130 b8 26 8f 3d 4f 6d 01 be 39 5f b7 bd 58 18 02 be
       0.06989807 -0.12639354 -0.08953709 -0.12704599
000140 b2 8d d7 bd c3 8c 01 3e aa 60 a2 3d bd 5d e8 bd
       -0.10525073 0.12651353 0.079285935 -0.11346004
000150 71 23 4e 3d da ca 97 ba e3 64 81 3d 2e b2 79 3c
       0.05032677 -0.001158084 0.06318071 0.015240235
000160 1e b5 05 3e bc 8e 4e bd 5c 1e 98 3d ac 80 27 3e
       0.13057372 -0.05042909 0.074276656 0.16357678
000170 b0 27 46 3e 5d 9a 12 3e f7 2b ad bd a7 b8 94 bd
       0.19351077 0.14316697 -0.08455651 -0.07261782
000180 0a 70 ef 3d 0b 76 99 3d bc e3 94 bd 86 38 a8 bd
       0.11691292 0.07493218 -0.072699994 -0.08213906
000190 9e b7 48 3b 2d b1 32 3c d1 01 70 be 5b 80 94 be
       0.0030627022 0.0109065 -0.23438193 -0.29004177
0001a0 8f 87 96 be fc 45 3a be 1c 2c 65 be e4 99 8f be
       -0.29400298 -0.1819076 -0.22380108 -0.28047097
0001b0 fd dc 27 be 2c e3 ac bd 1c cb 5c be 6c 5f 55 b9
       -0.16392894 -0.08441767 -0.21561855 -0.0002034881
0001c0 8b 97 22 be 9e 83 80 3d 2e 4f 81 bc 07 27 72 be
       -0.15878122 0.06275104 -0.015784826 -0.236477
0001d0 55 97 87 bd c0 77 a5 bc a0 ec 05 3c b6 03 28 bd
       -0.06620661 -0.020198703 0.008174092 -0.041019164
0001e0 cb b9 f8 bd 1c 21 ab bd b2 3e 25 be 2e 79 7d bd
       -0.12144812 -0.083559245 -0.16137198 -0.061883144
0001f0 99 2c 6b be 91 76 80 3d 97 a3 2a 3e d5 04 c2 3c
       -0.22966231 0.06272615 0.16663967 0.023683945
000200 7a 9d b4 bd 01 54 c1 bd 6c b5 ad 3d 6f d7 42 3e
       -0.08819099 -0.094398506 0.08481869 0.19027494
000210 9c d9 c0 3c 45 d3 79 3d 36 ab 20 3e f3 ac fb 3d
       0.023541264 0.060992498 0.15690312 0.12288847
000220 89 6b 74 3e db cd 2f 3e 46 9c 4e 3e 33 33 08 3e
       0.23869146 0.17168371 0.20176801 0.13300781
000230 35 2d 84 3e 26 55 a4 3e dc 00 ac 3e 33 31 2a 3e
       0.2581574 0.32096213 0.33594406 0.1662033
000240 8c bb 2c bd cd 50 50 3d a4 cc 7d 3e 94 96 ef 3d
       -0.042171046 0.050858308 0.24785095 0.116986424
000250 dc 04 ad bc fe a2 ff bd 95 22 25 be 89 a7 1c be
       -0.021120481 -0.1248226 -0.16126473 -0.15298285
000260 21 5c 9b bd f7 cc 13 3d 2d 72 77 3c ba 3e fe bd
       -0.075859316 0.03608414 0.015102905 -0.12414308
000270 40 92 7d 3d cb ec bd bd 77 c4 92 bc 5a b3 8a bd
       0.061907053 -0.0927368 -0.017915947 -0.0677249
000280 9e dd 32 bc 94 05 9f bc e5 77 ef bd 07 62 01 be
       -0.0109170955 -0.01941184 -0.1169279 -0.1263505
000290 c2 94 4d bd e4 26 99 3c 56 ab 02 bd e2 11 4d 3d
       -0.050190695 0.018695302 -0.03190168 0.050065883
0002a0 98 c3 0f be f1 73 84 bd 2b 29 ce 3d 7d 98 36 bc
       -0.14039457 -0.064674266 0.10066446 -0.0111447545
0002b0 85 ce 14 3e be ec 06 3d 3f 7e 1b be 8d 78 e9 3d
       0.14531906 0.03294062 -0.15184878 0.11399946
0002c0 bb 81 18 3d 04 aa 9a 3a 72 5d 38 3e 6d fe 36 bd
       0.037233096 0.0011799936 0.18004397 -0.044676233
0002d0 69 e7 d4 3d 17 3b ab 3d e0 b0 4e 3e a9 c6 1e 3e
       0.103957005 0.0836088 0.2018466 0.1550547
0002e0 75 08 02 3e 93 a4 18 3e 8f 8c 9f 3d 09 ca 7d 3d
       0.12698539 0.1490653 0.07790481 0.061960254
0002f0 05 cc 09 bd 25 51 e3 3d a1 3c 3b 3e 63 85 3d 3e
       -0.033641834 0.110994615 0.18284847 0.18507914
000300 e5 0e 5d 3b 64 ba b7 3c f0 74 bc bd 75 a0 ef bc
       0.0033730802 0.022427745 -0.092019916 -0.029251317
000310 c3 48 f5 3c 5b 17 12 3e ea 2f 29 bd 70 6e d2 bc
       0.029941922 0.14266722 -0.04130546 -0.025687426
000320 b4 3c 5f bc e0 50 9f 3d d1 4b 96 bd ce 8a 62 bd
       -0.013625313 0.077790976 -0.073386796 -0.055308156
000330 f2 dd d1 bd eb 67 f3 3d 13 67 f1 3c a9 9a 37 3e
       -0.10247411 0.11885055 0.029468095 0.17930092
000340 c5 90 d6 3d ae 7d 9c b9 ff a5 8f 3d 8e 80 6a 3d
       0.10476831 -0.00029848277 0.07014083 0.057251506
000350 77 97 8c 3d 25 d2 aa bc 67 49 23 bd 29 ee 85 3d
       0.06864827 -0.020852158 -0.039864924 0.06539566
000360 84 70 14 bc 47 c6 ad bb 3c e3 67 3d fa 2c 41 be
       -0.009060029 -0.0053031775 0.056613192 -0.18864813
000370 3e 37 8e bc 49 c3 38 3e 6e f2 d9 3d 1e d1 e4 bc
       -0.017360326 0.18043245 0.10641943 -0.027931746
000380 c3 b3 55 be 23 7e 4d 3d 81 79 b8 bd 1b f0 26 bd
       -0.20869355 0.05016912 -0.0900755 -0.040756326
000390 95 00 3e bd 61 22 c7 bc 21 0d 9f bb 7c 88 b5 3d
       -0.046387274 -0.024308385 -0.00485386 0.08863923
0003a0 49 e1 f4 3b 73 4f c5 3d 3d 47 82 3d 16 ce a1 bd
       0.007473145 0.09634294 0.06361244 -0.07900636
0003b0 46 fc 3b 3d 3e c2 b3 bd 85 79 63 bd 2a 34 de 3c
       0.045894884 -0.08777283 -0.055535812 0.027124483
0003c0 12 25 04 3d ce 7f a5 3d 3a 86 30 bd 57 3e c3 bb
       0.032261916 0.080810174 -0.04309676 -0.005958359
0003d0 5a a1 59 3d 94 40 f1 bd cb bd 9e 3d b5 6a cf bd
       0.053132392 -0.117798954 0.07751044 -0.101277746
0003e0 bf e0 86 bb 2a a6 ce bc 6f 54 8a bd c7 3c eb 3b
       -0.0041161473 -0.025225718 -0.06754386 0.007178876
0003f0 e8 db b2 3d df d6 29 bd b9 33 9b bd ed 29 45 bd
       0.0873335 -0.041464683 -0.07578225 -0.048135687

features.0.bias f4 [6]
000000 77 b2 a9 3e 71 4b 29 be a1 56 f7 3d 48 5f 51 3d
       0.3314397 -0.16532685 0.1207707 0.051116258
000010 06 49 95 bd 7a 1f 9c bd
       -0.07289319 -0.07623191

features.3.weight f4 [16, 6, 5, 5]
000000 3d 40 84 bd fc 88 6b 3d 58 c0 57 3c 4b 54 99 be
       -0.06457565 0.057503685 0.013168417 -0.29947123
000010 59 4d c3 be 5f 2a 0f bc 4f e1 cf 3c 45 bf 86 3d
       -0.3814495 -0.008738129 0.02537599 0.065794505
000020 3d 26 59 3e 51 13 94 bc e7 bf e4 bd d7 66 19 3e
       0.21205993 -0.018075617 -0.11169415 0.14980637
000030 b8 48 c9 bd d5 a3 a5 bd 25 bb 7e bb 96 59 0e be
       -0.09828323 -0.08087889 -0.003886887 -0.13901362
000040 1d ed 04 bd 1b 92 92 3e 70 55 2a bd 9f cb 96 3d
       -0.03245269 0.28627095 -0.041585386 0.073630564
000050 71 c5 a8 be 19 2f 28 3e ed ef 11 3e af 61 ab 3c
       -0.32963136 0.16424216 0.1425168 0.020920603
000060 da e7 41 3e 91 d7 80 be b2 87 ae be f0 e9 65 bd
       0.189361 -0.25164464 -0.34087902 -0.056131303
000070 4f d9 6e bd 0d f2 9d 3c 10 e5 9f bd f5 df 8d bd
       -0.05831271 0.019280458 -0.07807362 -0.06927482
000080 c5 9a 92 bd 3b 84 65 3b e9 4a 9a 3c 53 ab 73 3c
       -0.07158426 0.0035021442 0.018834548 0.01487239
000090 be cd 38 3e 2e c9 2e bd 6f 0b 29 3e b2 d0 a7 3d
       0.18047234 -0.04267233 0.16508268 0.08194102
0000a0 c3 1a 2c be 43 a1 08 bc 10 8c 26 3e 1b db 10 3e
       -0.16807084 -0.008339229 0.16264367 0.14146082
0000b0 40 06 c7 bd 1e 88 c9 ba 59 6a 19 3e 23 4e 32 3e
       -0.09717989 -0.0015375649 0.14981975 0.1741262
0000c0 74 c0 6b 3d a8 6f 7b bd 59 56 01 3e 98 1c 91 bd
       0.057556584 -0.06138578 0.12630595 -0.07085532
0000d0 16 38 24 be ae 57 5b bc 8b a6 81 bd 5d 58 bf 3d
       -0.1603702 -0.013387604 -0.06330594 0.09343026
0000e0 9e 40 86 bc 9b ca 18 bd 85 1c 35 3d 75 43 b8 3d
       -0.016388234 -0.037302595 0.04421665 0.089972414
0000f0 e2 62 3e bd 6f 10 82 3d e0 9e e5 3d 84 02 23 3d
       -0.04648102 0.06350791 0.112119436 0.03979732
000100 3d a6 84 3d df 26 82 bc 4f 30 b1 3d 2b 8b 55 bc
       0.0647702 -0.015887676 0.08651792 -0.0130336685
000110 51 9a 90 bd bb 9e 98 bd 3b 5b 48 3d 16 e2 24 3d
       -0.070606835 -0.074521504 0.04891513 0.040254675
000120 e1 3f e5 3c 92 d1 a9 bd fa ec 64 3d 4f 8e af 3d
       0.027984561 -0.082919255 0.05589006 0.08572065
000130 84 cf 63 bd 14 3b 78 bd 8b 0a 8b bd 06 ab 5d 3b
       -0.055617824 -0.060603216 -0.0678912 0.0033823862
000140 a5 7f aa bc 28 16 40 bd 09 ba ac bc 2b ac 21 3c
       -0.020812819 -0.04689613 -0.021084802 0.009867708
000150 48 1c 47 bd 81 40 5e 3c 91 e9 32 bc 12 15 03 bd
       -0.048610955 0.013565184 -0.010919944 -0.032002516
000160 56 66 89 3c 6a dc 94 3d 1e 1b 62 bd 0e cf f9 3b
       0.01677243 0.07268603 -0.055201642 0.00762356
000170 60 da bf bc 09 5b b0 3d 2c 50 ad bd 4f 4e a0 bd
       -0.023419559 0.086111136 -0.08462557 -0.07827436
000180 4c c6 a4 3d 39 0a 3b bd 20 3d 80 3c 60 e9 e6 bb
       0.080456346 -0.045664046 0.015654147 -0.0070468634
000190 0d 54 38 bc c1 42 27 bd c3 83 18 3d 00 40 34 3c
       -0.011250508 -0.040835146 0.037235033 0.011001587
0001a0 2a b2 94 bd 46 16 7f bd 8b e8 21 bd 81 51 b3 3c
       -0.072605446 -0.0622771 -0.03952841 0.02188945
0001b0 65 2d 5e bd 5e ef 8e 3d 2f 3b 1b bd 50 d8 ae bc
       -0.05424251 0.069792494 -0.03789824 -0.02134338
0001c0 c0 ba 8d 3d b6 21 3a 3d f0 6b 77 3d ea 1f 13 3d
       0.06920385 0.045442306 0.06040567 0.035919107
0001d0 05 b1 32 bd 9e 9d 29 bd 4c 80 97 bc e8 2a 4f 3d
       -0.04362585 -0.04141008 -0.018493794 0.050578028
0001e0 b1 72 42 bd 37 76 af bd b2 38 09 3d 05 a8 ab 3d
       -0.04747266 -0.085674696 0.033501334 0.083816566
0001f0 3c 3e f2 bc 02 4f 48 be 69 f3 b7 bc 3d 70 10 be
       -0.029570691 -0.19561389 -0.022454934 -0.14105316
000200 d9 36 4d be cb 99 2d bd f0 99 2c 3d 19 cc b4 3c
       -0.20040454 -0.042382997 0.042138994 0.022069978
000210 41 eb 4b 3d 1c d7 86 3d a8 78 aa bd 80 ac 2e be
       0.049784902 0.065839976 -0.083237946 -0.17057991
000220 dc 63 26 be 90 dd d4 3d a6 ed 3b bc 57 8a 97 bd
       -0.16249031 0.10393822 -0.011470234 -0.07399433
000230 f6 48 26 3e ad c0 bc 3d b0 d0 eb 3d ee ba eb 3c
       0.1623877 0.092164375 0.11514413 0.028775658
000240 2f 27 22 be cc a7 49 bd 6a e2 95 bd d2 50 06 3e
       -0.1583526 -0.04923229 -0.07318576 0.13116768
000250 22 1d 96 3d 2d 50 5d 3c c1 51 8e 3d 90 94 3c bd
       0.073297754 0.013507885 0.06949187 -0.046040118
000260 db b8 48 bd b6 19 45 bc f6 69 61 bc 2a 47 79 bd
       -0.049004417 -0.012030056 -0.013758173 -0.060858883
000270 25 47 75 3d b4 27 21 bd 46 7b e4 3c 3c f5 8e 3d
       0.0598823 -0.039344504 0.027890813 0.069803685
000280 d4 0a 05 3d e5 db 90 3b 3f c0 9e 3d eb d2 4b 3c
       0.03248103 0.0044207447 0.07751512 0.0124404235
000290 4b c8 1e bd e0 17 83 3d b9 bb db 3c 13 49 ae bd
       -0.038765233 0.06401038 0.026822912 -0.085100316
0002a0 88 7f 5f bc 00 b7 40 bd 40 d5 a3 3d 73 40 c8 bb
       -0.013641246 -0.047049522 0.079996586 -0.0061111986
0002b0 a4 8f 84 bd ae 16 ab 3b 0e c5 76 3d a8 20 03 bc
       -0.0647271 0.0052212095 0.06024652 -0.008003391
0002c0 9c 78 44 bc 8e dc 8a bc 96 2d c1 bc 3d 97 91 bd
       -0.011991646 -0.016950872 -0.023581307 -0.071089245
0002d0 4a 49 a3 bd 49 69 cc bd 19 7d bc bd 5c 8e be bb
       -0.07972963 -0.09981019 -0.09203548 -0.0058153104
0002e0 0a d4 cb bd 93 2b 80 bc dc 3a 9e bb 8c fd 09 bd
       -0.099525526 -0.015645778 -0.004828794 -0.033689067
0002f0 29 a9 be bd 2c 0c 10 3d 5b 57 b3 bd 0a 4f ed 3c
       -0.093096085 0.035167858 -0.08756896 0.028968353
000300 bf d6 f6 bd f3 4d a8 bd 0b 7b d3 3c e6 8f d6 bd
       -0.12052678 -0.08217993 0.025815507 -0.10476665
000310 c2 44 b5 bb 0d 2d 05 be 66 7d f8 bd e6 15 30 bd
       -0.005531878 -0.13005467 -0.12133293 -0.042989634
000320 0a a6 65 bd c9 a3 0b 3c b2 bb b3 bd f6 ca 75 bd
       -0.05606655 0.008522936 -0.087760344 -0.06000801
000330 f6 06 c4 bd dd 07 93 bd eb 7c d3 3b 21 da 00 be
       -0.0957164 -0.07179234 0.0064541004 -0.1258321
000340 74 19 9a bd 6a 70 fb 3c b4 cd 8d bd 94 2f 28 3b
       -0.07524386 0.030693252 -0.069240004 0.0025663124
000350 e0 89 8b bd d5 12 9a 3b 1b 91 ca bd 2f 32 85 bd
       -0.06813407 0.004701952 -0.09890958 -0.065037124
000360 f2 f9 a3 bd dc f1 6f bd 6d 9a b0 bc 73 69 62 3d
       -0.08006658 -0.058580264 -0.021558011 0.055276345
000370 55 48 91 bd 17 64 b3 bd db 57 20 bb 0e f0 75 bd
       -0.07093874 -0.08759325 -0.0024466428 -0.060043387
000380 f6 66 9e 3d 77 3d 77 bd a3 39 3b bb c9 b9 22 bc
       0.07734482 -0.06036135 -0.002856829 -0.00993199
000390 b4 92 27 3d 06 3b 80 3d 89 33 9b bc 2e bf 92 bd
       0.04091139 0.06261258 -0.018945472 -0.07165371
0003a0 67 5c 06 3d 70 b5 a7 3c e4 2b 28 3d 57 b9 35 bd
       0.032802965 0.020472258 0.041057482 -0.044366207
0003b0 00 3e 57 3d 0b b3 90 3d 3f 3e c8 3a b0 30 9c bd
       0.052549362 0.070654 0.001527734 -0.07626474
0003c0 3f 29 84 3d d1 d3 89 bd 32 8d 69 3c 56 b7 0c 3c
       0.064531796 -0.06729854 0.014254855 0.008588633
0003d0 e1 fc 04 bd b3 af 0b 3d d1 90 95 bd a8 57 98 3c
       -0.032467727 0.034103107 -0.07303012 0.018596485
0003e0 44 04 54 bd d6 a7 10 bc 7e dd 9f bb 2e ae 60 3d
       -0.05176188 -0.008829078 -0.004878699 0.05485361
0003f0 6b 33 65 bd c4 ef 0c 3d da da fa bc 26 69 53 bd
       -0.05595724 0.034408346 -0.030621935 -0.05161395

features.3.bias f4 [16]
000000 42 fb ab 3d 7f f3 e9 bd bf e2 e2 be 22 40 9f 3c
       0.08397533 -0.11423396 -0.4431362 0.01943976
000010 fd ab c5 be f9 0e a8 3e e3 a3 6f 3d ff 5b b6 bd
       -0.3860778 0.32823923 0.058505904 -0.089042656
000020 dc 4a f1 3b 55 8b 88 be af 1b 27 3d 25 04 af 3d
       0.0073636603 -0.26668802 0.040797886 0.085457124
000030 53 82 ef 3d 54 59 96 bd 23 5f bc bd b2 bc 44 bd
       0.11694779 -0.07341257 -0.091978334 -0.048031516

classifier1.0.weight f4 [32, 256]
000000 9e 75 04 3e d9 7a 14 be 3f 18 0c be 88 d4 6b bd
       0.12935492 -0.14499988 -0.13681124 -0.057575732
000010 be 32 15 3d 15 ad 00 3e a0 90 29 3e 18 5e dd 3d
       0.036425345 0.12566026 0.16559076 0.108089626
000020 0e ef b6 bb 72 4e 94 bd 28 a2 4c be 8d f9 c4 3d
       -0.0055826968 -0.07241525 -0.19983733 0.096179105
000030 1b 69 ce 3d 3f 9a 0c be 35 4e ec bd 13 35 85 bd
       0.10078641 -0.13730715 -0.11538354 -0.06504264
000040 9c e3 78 3d 26 4d 57 bd b7 3e ac 3c f9 b7 29 3d
       0.06076394 -0.05256381 0.021025999 0.041435216
000050 22 a4 28 bb e2 c8 1e 3d 1d 07 68 bc 5e e5 84 3d
       -0.0025732596 0.038765796 -0.014161852 0.06489061
000060 a8 2e 2f 3c b3 68 08 bd 86 21 f8 3c 11 93 97 3c
       0.010692276 -0.033302974 0.030289423 0.018502744
000070 30 c8 8d 3d f6 16 d9 3c 19 84 31 3d 68 fc 2e 3d
       0.06922948 0.026500206 0.04333887 0.042721182
000080 a6 19 b3 bc 63 0d 05 3c 61 57 4e 3e 7a c4 56 bd
       -0.021862816 0.008120867 0.2015052 -0.05243347
000090 14 5e 4e 3d 54 9b 25 3e 78 00 24 3e e7 a3 ff bd
       0.05038269 0.16172534 0.16015804 -0.12482434
0000a0 4f 60 d0 3d 26 0e 0f be a4 f3 27 bc 58 e1 de bd
       0.101746194 -0.13970241 -0.01025096 -0.10882825
0000b0 d3 8f 86 bd e2 15 e0 3d 49 f9 a5 be e8 6e 83 bc
       -0.06570401 0.10941674 -0.32416752 -0.016044095
0000c0 60 36 20 3b 1e 8b 0d bd b4 24 64 3d c4 de e1 bc
       0.0024446473 -0.0345565 0.055699065 -0.027572043
0000d0 6d 42 22 bd a1 f0 90 bd 21 83 5e bd f2 38 61 3d
       -0.03961413 -0.07077146 -0.054324273 0.054985948
0000e0 92 fb 6e 3c de 79 35 bc 25 65 91 3a 89 d6 71 bd
       0.014586346 -0.011076419 0.0011092765 -0.059042487
0000f0 74 2d 62 3c 5f 0a 82 bc c4 13 f5 bc b2 d0 69 bd
       0.013804782 -0.015874086 -0.029916652 -0.057083793
000100 e1 ea f5 3d bd 39 9b bd 0a 6e d3 bd 81 03 c8 bd
       0.1200769 -0.07579372 -0.10323723 -0.09766293
000110 62 db fa bc 1b 01 0c 3d 78 de 17 3e 2d 36 a5 bd
       -0.030622188 0.03418074 0.14830959 -0.08066974
000120 38 74 eb bd db 0c 04 3e 03 9b a8 3d 17 6a c2 3d
       -0.11496776 0.12895529 0.08232691 0.09492891
000130 3d cd 31 be 41 3e 93 3e 19 40 8b 3c f8 2a 07 bd
       -0.17363448 0.28758433 0.016998338 -0.032999963
000140 f2 a4 82 bd 39 5c 16 bd 02 33 8a 3d b5 25 62 bd
       -0.06379117 -0.036709044 0.0674801 -0.05521174
000150 85 6e 2d 3d 16 67 ca bc 5c b8 94 3d 58 8c 05 bd
       0.042341728 -0.024707358 0.07261726 -0.032604545
000160 f6 a6 1d 3c 7d 7d 53 3d fb 21 77 bd e7 b1 6e bc
       0.009622326 0.051633347 -0.06033514 -0.014568782
000170 52 e3 38 3c b7 45 5f 3d 81 0e 22 be 73 68 bd 3d
       0.011284666 0.054509845 -0.15825845 0.09248438
000180 95 75 a3 3e b7 ef 02 3e 6b ea c6 3d 56 0c 45 bd
       0.31925645 0.12786756 0.097126804 -0.048107468
000190 6f 05 81 3c 1c 21 d1 bd a5 89 4f bd a3 8c 79 3b
       0.015749661 -0.10211393 -0.050668377 0.003807821
0001a0 16 48 96 3d 81 fd 7e 3b 9d 58 bf be 21 dc 96 3d
       0.07337968 0.0038908424 -0.37372294 0.07366205
0001b0 be e1 1e 3e bb 21 c8 3d a5 d2 26 3d 72 43 50 be
       0.15515801 0.097720586 0.04072823 -0.20338228
0001c0 0e 5d 16 bd f3 a2 1c 3e 0f c7 90 be 11 42 77 3d
       -0.036709838 0.15296535 -0.2827687 0.06036574
0001d0 0b 52 13 bd 4c 96 b2 3d c7 15 2d 3e de fc 0d bd
       -0.035966914 0.08720073 0.16902839 -0.03466498
0001e0 c6 a0 63 3c b1 c7 43 3c 58 71 b4 3d 49 d4 ce 3c
       0.013893312 0.011949466 0.08810681 0.02524771
0001f0 6a ae 60 bc 55 6f 93 be 6c 14 dd bd fe 24 63 bd
       -0.013713459 -0.28795877 -0.10794911 -0.0554552
000200 52 8f b9 bc 4a 0b 5c bc ba de fc bc be a6 00 3d
       -0.022651348 -0.013430426 -0.030867923 0.031409018
000210 4a 9e de 3c c4 56 84 bd 26 65 0a bc 4a a1 28 3c
       0.027175087 -0.06461862 -0.008446967 0.010292361
000220 68 9b 5d 3d 62 e2 ce bc 88 db ca 3c fa a1 53 bc
       0.054103285 -0.025254432 0.024762884 -0.012917036
000230 9a ea e3 bc cb a8 1b 3d 0e 7b 82 bd 08 65 38 3d
       -0.027821828 0.03800277 -0.06371127 0.045018226
000240 3a 56 03 be fd 92 7c 3d c2 54 14 3c 9b 41 de bd
       -0.12825862 0.061663616 0.009053411 -0.10852357
000250 98 4e 06 bd 8b 89 ae 3e 4d 31 3a bc 6f 2d 64 be
       -0.032789797 0.34089312 -0.011364293 -0.22282957
000260 b5 a0 6d bd 92 33 6b 3d 6b 5e 49 bd e4 1c 2e 3e
       -0.05801459 0.05742223 -0.04916231 0.17003208
000270 5e 40 cd bc 65 71 d4 bd 16 93 cb 3d b1 63 2d 3d
       -0.025055107 -0.10373191 0.09940164 0.0423314
000280 2e c3 0c 3d 1c a4 8a bc 4a 39 16 bd 18 4c c4 3c
       0.034365825 -0.016923957 -0.03667573 0.023962066
000290 35 90 28 bd 10 2f 52 bd 14 d9 18 3d 6a f7 19 bd
       -0.04115315 -0.051314414 0.037316397 -0.037589468
0002a0 a4 72 c0 bc d7 5d b1 bc 59 57 47 bd 60 a6 08 bd
       -0.023492165 -0.021651192 -0.048667286 -0.033361793
0002b0 10 45 b8 bc d3 19 b1 bb 80 f6 b8 3c fc 70 b2 3b
       -0.022493869 -0.00540469 0.022578478 0.0054455977
0002c0 0f a3 00 bc 05 7c 88 bd 57 55 b7 bb 72 8b 2d 3e
       -0.007851376 -0.0666428 -0.00559489 0.16947725
0002d0 7b 60 c0 bc c1 6d 1d bd fb af 1e 3e fe 38 1c 3d
       -0.023483505 -0.038434748 0.15496819 0.03814029
0002e0 09 38 22 3e f3 f4 90 bc 3e 09 88 bd f6 7d 39 3b
       0.15841688 -0.017694926 -0.06642388 0.0028303838
0002f0 82 4e 1a bd b4 ac f3 3d ed ad 0b 3e 17 9a 2c 3e
       -0.037672527 0.11898175 0.13640566 0.16855656
000300 1d 90 1b be 76 4a e8 3c 8d e4 0c 3d ca 76 3f bc
       -0.15191694 0.028355818 0.03439765 -0.011686036
000310 22 18 39 3e 6b 02 d6 3d eb 30 a7 3c bd 8e 28 3e
       0.18075612 0.1044968 0.020409068 0.164607
000320 d8 bf 05 be a8 a3 74 bd 0a e4 07 bd 76 2f 4f 3d
       -0.13061464 -0.059726387 -0.03317646 0.05058237
000330 82 e6 83 bd bf 7f 9f 3d 59 35 ef bd 58 75 b7 bb
       -0.0644045 0.077880375 -0.11680097 -0.0055987053
000340 dd 32 ec 3c e4 e2 16 3d 75 88 07 3d 9d 66 8f 3d
       0.028832847 0.036837474 0.03308912 0.07001994
000350 74 90 f9 3a db cb 3f 3d 5c e7 0e 3d 91 fe 91 bc
       0.0019040243 0.04682527 0.03488861 -0.017821582
000360 93 93 45 bd bb d9 f3 3d af fe 10 bc 93 48 4a 3d
       -0.04823644 0.11906763 -0.008849784 0.04938562
000370 81 cd 1a 3d ce bb c3 bb 87 68 ed bc ef ab 8c 3c
       0.03779364 -0.005973316 -0.028980507 0.017171828
000380 d2 1e e7 bc 9f 8b b1 3c ff b8 f3 bc 1b ac 62 3d
       -0.028212938 0.021673022 -0.029751299 0.055339914
000390 3c f1 5d bd f8 f9 f7 bb 2d 87 f9 3b eb 1a 92 3b
       -0.054185137 -0.0075676404 0.007614991 0.0044587753
0003a0 f9 a2 8e 3d d3 7b b5 3a 25 c7 20 bd ab d9 27 3d
       0.06964678 0.0013846107 -0.03925242 0.04097907
0003b0 33 9b 25 3d 7e 8a 87 3d 09 e6 98 bc 53 83 ff bc
       0.040431213 0.06618212 -0.018664377 -0.03119055
0003c0 32 0f 1a bc ce 40 64 bd 68 c1 76 bc 10 76 8f bd
       -0.009403037 -0.055725865 -0.01506076 -0.070049405
0003d0 30 fe 32 bb 97 e8 bd bd 96 30 af 3c 9e 53 1a bd
       -0.0027312152 -0.092728786 0.021385472 -0.0376774
0003e0 64 23 85 bc 6c 1e bc bd a3 81 04 be e7 04 09 be
       -0.016252227 -0.0918549 -0.12940077 -0.13380776
0003f0 03 22 d4 bb cd d6 bf bd 59 3d 25 bb 5b 13 57 bd
       -0.006473781 -0.09367142 -0.0025213568 -0.052508693

classifier1.0.bias f4 [32]
000000 3b c8 8f be e4 5b 02 be af 3c 37 3e 2c 43 52 3e
       -0.2808245 -0.12730366 0.17894243 0.20533437
000010 85 cd 48 3e 5d 03 95 bb 45 b4 ea bc 7d 45 a6 3d
       0.1960965 -0.00454752 -0.028650412 0.081187226
000020 5c 68 fa be 9d c9 32 3e fc 01 ce be d0 6f 07 be
       -0.48907745 0.17459722 -0.4023589 -0.13226247
000030 88 ce 39 bf a2 31 e6 be a3 4f 4d 3d d3 8c e7 be
       -0.72580767 -0.44959742 0.050124776 -0.45224628
000040 96 b3 a9 be 9c c4 0a 3f 39 d7 5d 3f 5c e0 1c be
       -0.33144826 0.5420625 0.8665653 -0.15319961
000050 1e 58 44 bd 22 3c 9f bd 6d 46 8c be 35 23 4f bf
       -0.047935598 -0.07775141 -0.2739748 -0.80913097
000060 c4 14 cd 3e 09 64 59 3f 83 da d4 bd 62 d3 96 be
       0.40054905 0.84918267 -0.1039324 -0.29458147
000070 b1 c4 c1 be 6d 16 40 be d3 6b eb be 4b 45 08 3f
       -0.37845376 -0.18758555 -0.459807 0.5323073

classifier1.2.weight f4 [10, 32]
000000 17 e4 d5 bd 7e b1 6d bc d3 f4 b9 3d 82 89 aa bd
       -0.10443895 -0.0145076495 0.090799 -0.08327009
000010 43 a2 dd 3e bf b9 38 bc ee aa 12 be 3a ab 9c 3e
       0.43287858 -0.011274754 -0.14323017 0.30599385
000020 97 63 82 be a7 0d 84 bd fe 1d 4d be 29 c5 1d be
       -0.25466606 -0.064479165 -0.20030972 -0.15407242
000030 3e ab dc bd 6c fa 96 3e 87 f8 60 3d 61 47 e3 bc
       -0.10774849 0.29487932 0.054924514 -0.027743997
000040 b5 20 0a be 72 bb 27 3e cf ea dc 3d 15 34 d5 3d
       -0.13489039 0.16380098 0.10786974 0.104103245
000050 14 d8 b0 bd 64 4c 39 be af bf ea 3c 4f 1b 37 3e
       -0.08634964 -0.18095547 0.028655855 0.17881511
000060 1e 99 25 3e d3 6e 1e be b9 71 80 3e c0 8c 1f be
       0.16171691 -0.15471964 0.25086764 -0.15581036
000070 ea b0 69 be 46 de 60 3e 0f b0 a0 3e 68 22 a7 3d
       -0.22821394 0.2195979 0.31384322 0.08160859
000080 83 5f ee 3d 7d a7 d9 3c 09 1b cf 3d 10 fc b9 bc
       0.11639311 0.026569122 0.101125784 -0.0227032
000090 e1 bc 06 bd 6d 56 90 be 33 bd fc 3c c3 19 27 bd
       -0.032894973 -0.28190938 0.030851936 -0.040796053
0000a0 8d a8 37 3e b2 8c 5e bd b4 9c 00 3e ba 7f 82 3e
       0.17935391 -0.054333396 0.12559777 0.25488073
0000b0 d5 57 a4 bd 4d e9 8a 3d e8 ed 8b 3d 48 0f a4 bd
       -0.08024565 0.0678278 0.068324864 -0.08010727
0000c0 9a 36 29 be 3f 3f 95 3e 5b 15 45 3e 44 c8 e2 3d
       -0.16524735 0.29149815 0.19246428 0.11073354
0000d0 f0 3a 20 bd 6a 00 1a bd c1 5a e0 3d a6 24 ef 3c
       -0.039118707 -0.03759805 0.1095481 0.02919228
0000e0 3c 3a a7 bb b1 8e 34 3d a8 c6 18 be a9 f4 4b 3d
       -0.0051033776 0.044081394 -0.14919531 0.049793873
0000f0 b6 23 98 be 95 70 8b 3c 1a b4 9c 3c 27 fb 8b 3d
       -0.29714745 0.017021457 0.019128848 0.06835013
000100 21 33 3e 3c 5d 72 c8 ba 0b 09 8d 3a ff aa bc 3d
       0.01160887 -0.0015292872 0.0010760141 0.092123024
000110 0d 83 16 3e af ab b6 3e 9e f2 12 be d6 07 66 3e
       0.1469843 0.3567786 -0.14350364 0.22463927
000120 c2 64 87 be a4 b7 f9 bd c4 18 27 bd 54 c2 b3 3e
       -0.2644406 -0.1219323 -0.040795103 0.35109198
000130 97 39 86 be 86 6a e3 3c ad 7c 94 3e d9 cf 89 3e
       -0.26215813 0.027760755 0.2900137 0.26916388
000140 2e d4 29 3d 4b 46 a9 be 79 e9 94 3c e9 79 05 3e
       0.041462116 -0.33061442 0.018177735 0.13034786
000150 5d 1f cf bd 4b 04 a6 be e2 a3 8b bd af 66 13 bd
       -0.10113404 -0.3242515 -0.068183675 -0.0359866
000160 be cb cc bd f4 f5 82 bd ab b0 db 3e 7e c6 56 bd
       -0.09999798 -0.06394568 0.42908224 -0.05243539
000170 06 1d e1 3d 86 e3 e2 3a d7 65 16 3c 9b 47 23 bd
       0.10991864 0.0017310239 0.009179554 -0.03986321
000180 e9 06 50 bc 9e 68 62 3d b7 07 fb bd d7 e2 2c be
       -0.01269696 0.055275552 -0.12257331 -0.16883408
000190 b8 b6 e3 bc 1c 1d 3c 3e bd b6 0e be ec 02 c2 bd
       -0.027797088 0.1837048 -0.13936897 -0.094732136
0001a0 6d 04 b3 3e 7c cb f1 3d 46 b6 10 3e 8f e8 9b be
       0.34964314 0.1180639 0.14132032 -0.30450866
0001b0 5c 56 06 3e 28 45 2c bd 30 7e 05 3d b5 7f 44 3e
       0.13118881 -0.04205814 0.032591045 0.19189341
0001c0 d3 3e c3 3d 56 79 a8 bd f4 a7 01 bd 8c ea 73 bd
       0.09533467 -0.08226268 -0.031654313 -0.059549853
0001d0 5a ef 49 bc 03 7f 2d be bc 21 8b bd d4 76 bb 3d
       -0.012325132 -0.16942982 -0.06793544 0.09153524
0001e0 87 35 0b 3e 8f 87 2e bc 3c b9 29 be ff 8a 1e 3e
       0.13594638 -0.010652437 -0.16574568 0.1548271
0001f0 ff 8e 33 3e c8 5e 8d 3d e2 94 ca 3d 97 2d 1a be
       0.17535017 0.06902844 0.098916784 -0.15056454
000200 23 59 01 3e f2 0e b3 3d 9d 35 56 be 66 d5 89 3e
       0.12631659 0.08743085 -0.2091889 0.26920623
000210 8f 78 c5 be e3 59 2c be 66 e9 68 3d fb 55 74 be
       -0.3856854 -0.16831164 0.05686321 -0.23860924
000220 81 06 fa 3d 06 4d db bc f0 39 f6 3c 55 37 19 3e
       0.12208272 -0.026770126 0.030056924 0.14962514
000230 ed b5 8a 3e e9 8a 2d be f7 65 9b bd 18 75 66 bd
       0.27091923 -0.16947521 -0.075878076 -0.056264013
000240 0f 3c 01 3d 8d 72 16 bd e1 7d f6 bc 1a 98 de be
       0.031551417 -0.036730338 -0.03008932 -0.4347542
000250 a1 fc 47 be ac 63 e0 bb f5 ae 35 be 80 4b 29 bd
       -0.19529964 -0.0068478193 -0.17742522 -0.041331768
000260 ee e5 13 bc 18 e4 3a be ed b9 35 bd e7 68 96 3e
       -0.0090269875 -0.18251073 -0.044366766 0.2937691
000270 ac 5c 46 3d 82 aa 35 be 3e 86 22 be 97 2c 37 be
       0.048428223 -0.17740825 -0.15871522 -0.17888103
000280 7a 15 a3 3d 55 4b 83 3d 21 8a 28 3e e9 a6 20 3e
       0.07963081 0.06410853 0.16458942 0.15688671
000290 44 93 c9 bc b3 f9 b5 be 3c 6d 0f bd 09 91 04 3d
       -0.024606355 -0.35542068 -0.035016283 0.03236488
0002a0 9d f0 ce 3d bb 7a b2 3d c7 99 52 be 1b 84 0d bd
       0.10104487 0.08714815 -0.20566474 -0.034549814
0002b0 4f 0e 40 3c e7 7c 1e be ae a2 13 be 9a 18 43 be
       0.011722161 -0.15477334 -0.14417526 -0.19052354
0002c0 c0 93 1f bc 5e 26 b9 bd 3d b0 f0 3d 27 6e 7a be
       -0.009739816 -0.09040521 0.11752365 -0.24456082
0002d0 6a a0 75 3d b5 76 b1 3c bb 6a 27 bd 48 b7 60 be
       0.059967436 0.02166305 -0.04087327 -0.21944916
0002e0 86 ac 73 3e 1c d3 1a 3e 8e 76 c1 be 52 8e 54 3d
       0.23796281 0.15119594 -0.37785763 0.05189354
0002f0 24 9a 02 bf 68 f9 ab bd 0f ed 86 be 5e 13 87 3e
       -0.5101645 -0.0839718 -0.26352736 0.26381963
000300 42 fb 61 3c e6 38 88 3e ef 2c 3d be ec 11 82 be
       0.013792815 0.2660591 -0.18474172 -0.25404298
000310 9a fc b5 3c e8 72 8a 3e e1 08 83 3c ab 91 8f bd
       0.022215176 0.27040792 0.015995445 -0.07010206
000320 60 4e 25 3e 93 b2 02 be 39 b8 14 3e ee ea 5c 3d
       0.16143179 -0.12763433 0.145234 0.053934984
000330 c3 03 f6 bd 83 5d ef bb 2e 60 b5 3e f9 34 4c 3e
       -0.12012436 -0.0073048486 0.35424942 0.19942082
000340 f4 88 58 3c 0c f7 87 3c 5d 8e 5f 3e 2d ba 61 3e
       0.013216246 0.016597293 0.21831651 0.22043677
000350 61 d2 19 3c c2 16 de 3e 13 f6 17 3e 4d 74 19 3e
       0.009388537 0.43376738 0.14839964 0.14985771
000360 23 75 3d be 9a d7 88 be 20 c1 d0 3c 61 0d 30 3e
       -0.18501715 -0.2672699 0.025482714 0.17192604
000370 1c a0 93 3e 1f b8 da 3c 8e 05 73 3e 9f d2 28 be
       0.2883309 0.026699124 0.23732588 -0.16486596
000380 84 0b 00 3d 89 78 28 bc 87 e2 2f be d1 d7 46 bd
       0.031260982 -0.010282644 -0.17176257 -0.048545662
000390 1b 0d 1f 3e f4 57 a9 3e 77 4b c9 bd 7d 2a 86 3e
       0.15532343 0.33074915 -0.09828847 0.2620429
0003a0 41 9f 0a be 1a 66 5e bc 80 35 48 bd e4 c3 2c 3d
       -0.13537313 -0.013574148 -0.048879147 0.042179003
0003b0 d8 96 67 bd 11 81 17 3e 4a 6d 47 be f5 f3 bc 3d
       -0.05654034 0.14795329 -0.19475284 0.092262186
0003c0 d7 76 9a 3d fb 59 ba bd a5 7c 44 be 0e f0 b0 3e
       0.07542198 -0.09099194 -0.19188173 0.34558147
0003d0 ee 08 06 bd c7 43 10 3e fb 52 3b 3e 62 48 05 3e
       -0.03272336 0.14088355 0.18293373 0.13015893
0003e0 de ea ea 3d 8c a1 4a 3e f1 8c 6c 3e 65 70 8b be
       0.114705786 0.19788188 0.2310064 -0.27234188
0003f0 14 0a 4f bb 9b 43 0b bc 2c 4f 7b 3e a7 c9 09 bd
       -0.00315917 -0.008500005 0.2454192 -0.033639576

classifier1.2.bias f4 [10]
000000 bd 3c 88 3e c8 8c 22 3f 65 d2 04 bf a8 52 07 bf
       0.2660884 0.63496065 -0.51883537 -0.528605
000010 38 fe 2c bf 33 21 15 3f 31 46 10 bf 74 46 00 bf
       -0.6757541 0.58253783 -0.56357104 -0.501075
000020 76 4a 24 3e b8 db 80 3e
       0.1604403 0.25167632

classifier1.3.weight f4 [10]
000000 c9 7c d5 3f 83 b6 a1 3f 34 96 c6 3f d8 85 d5 3f
       1.6678706 1.2633823 1.5514588 1.6681471
000010 9b db e4 3f bc a5 e1 3f 89 8a af 3f 56 3a de 3f
       1.7879518 1.7628703 1.3714153 1.7361553
000020 6b e6 db 3f 45 75 ae 3f
       1.7179693 1.3629538

classifier1.3.bias f4 [10]
000000 57 1f 88 bd 20 3a df bd f8 9b 11 bf 61 1c 9b 3e
       -0.066466026 -0.10899758 -0.56878614 0.3029509
000010 94 70 46 be e8 56 0a be 93 f1 70 3e a8 f9 32 3e
       -0.19378883 -0.13509715 0.23529653 0.17478049
000020 0e c2 36 3e 4d c8 72 be
       0.17847463 -0.23709221

classifier2.0.weight f4 [10, 10]
000000 d5 ff 96 be aa c2 ee be 77 a8 00 3e da c7 03 3f
       -0.2949206 -0.46632892 0.12564264 0.51476824
000010 df 5b da 3e 2b e8 c9 be 79 32 c5 bd 7d 97 58 bc
       0.42648217 -0.39434943 -0.096287675 -0.013219711
000020 b6 1c 95 3e 28 37 28 bf 60 73 e2 3e bd 13 ed 3e
       0.29123467 -0.6570916 0.4422865 0.46304122
000030 a6 12 4b be 3b 61 a9 bd 67 54 bc be 55 a3 1c 3f
       -0.19831333 -0.08270498 -0.36783144 0.61186725
000040 95 59 81 3e eb 5d 2c bf cc c9 72 3e 3e e6 7b bd
       0.25263658 -0.6733081 0.23709792 -0.061498873
000050 d2 0e 3c 3f 3b 5d 71 3e e7 c4 e4 bc a8 e8 2d be
       0.73460114 0.23570721 -0.027925922 -0.16983283
000060 0c c4 ef 3d a8 c6 d4 be d6 93 c8 3e 6e 75 d0 3d
       0.11707315 -0.41557813 0.3917529 0.10178648
000070 2b e3 9a bf 14 99 cc bd 19 af 1e bf e8 7b e2 bc
       -1.2100576 -0.09990135 -0.6198593 -0.027646974
000080 5a 87 ac be d5 cf 01 3f e5 2c 08 bf 13 08 d2 3e
       -0.33697015 0.5070775 -0.53193504 0.41021785
000090 8c 5c ab 3e 9b 7d 48 3e 7b 66 0e 3f 17 17 0f bf
       0.33469045 0.19579165 0.5562512 -0.5589461
0000a0 de 0e 15 3f 58 9b 1b 3e 71 28 f7 be cb ef 75 3c
       0.5822581 0.15195978 -0.48273042 0.015010784
0000b0 66 82 b0 bd a5 f4 f3 3e 7b 15 2a be 32 b9 e6 3e
       -0.086186215 0.47647586 -0.16609757 0.45063168
0000c0 71 62 d8 3c fa b6 44 bd 4a a0 94 bd d1 2e a3 3c
       0.026414128 -0.048026063 -0.07257135 0.019919785
0000d0 cd 5b 27 bf 18 8b 52 3f bb c0 fb be b8 84 78 3e
       -0.6537445 0.8224349 -0.4917048 0.24269378
0000e0 48 fe d2 be e9 51 0c 3e 9c d9 e2 3e 1a 9b 16 bc
       -0.41209626 0.13703121 0.44306648 -0.0091922525
0000f0 48 0a 16 bf 77 48 d0 be 41 dc e7 be 43 d6 0a 3f
       -0.5860944 -0.40680286 -0.45285228 0.5423319
000100 ed 9b b8 3e 54 9a 87 be af 93 c8 3e 0c 0b 29 bd
       0.36056462 -0.2648493 0.39175174 -0.0412703
000110 e5 a0 4f 3e 27 5e b8 be ca 5d c0 be 02 47 c2 3e
       0.2027622 -0.36009333 -0.37571555 0.379448
000120 88 b7 cd 3e 6a 67 88 bf 4b 9d 91 bd ac 1f d1 3e
       0.40179086 -1.065656 -0.071100794 0.40844476
000130 8d f0 0a bf 81 bc 90 3c 73 75 4a be b7 f0 48 be
       -0.542733 0.01766801 -0.19771366 -0.19623075
000140 f0 f1 ed 3e 38 ed 98 3c 6d d4 26 be 83 af 3c 3e
       0.46473646 0.018667802 -0.16291972 0.18426327
000150 95 82 2e bf e0 40 3d bf 33 8c ba 3e 5b 93 44 3f
       -0.68168 -0.73927116 0.3643509 0.76787347
000160 77 b0 8b 3d 9d b5 92 be ca 8b cc 3d 7a fc de be
       0.068207674 -0.28654185 0.099876 -0.43552
000170 d7 08 11 3e 0b d0 a2 bd 1e c0 37 bf 46 40 5a bf
       0.14163528 -0.07949837 -0.7177752 -0.85254323
000180 54 03 6b 3e c4 1e 3b 3e af 3a 9e 3e dd d2 84 be
       0.22950488 0.18273455 0.30904147 -0.25942126

classifier2.0.bias f4 [10]
000000 32 0f 6b 3e 24 34 0f bd f0 5b 5f 3d 32 5f 47 bd
       0.22955015 -0.034961835 0.054531038 -0.04867477
000010 a0 b2 c4 3e 5b 38 00 3f 23 ef a3 3d d1 2f 9f 3d
       0.3841753 0.5008599 0.08004596 0.07772792
000020 ab 54 c6 3e bc 3f 38 3e
       0.38736472 0.17993063

classifier2.2.weight f4 [7, 10]
000000 ff 0b 79 3e 92 a0 49 3e 06 b7 a0 be 39 a3 51 3e
       0.24320982 0.19690159 -0.31389636 0.20472421
000010 99 ea c8 3e c1 81 d7 be b1 bc b3 be 80 91 50 3f
       0.39241484 -0.42091182 -0.35104898 0.81472015
000020 20 2c 13 be 10 da 0c bf 9e 7b f9 be 87 00 43 3e
       -0.14372301 -0.55020237 -0.48727125 0.1904317
000030 cb 43 15 3e 9d 5c 20 bf 12 61 1b 3f c3 f7 f2 3d
       0.14576642 -0.62641317 0.6069499 0.11863663
000040 b7 5f 1b bd cd 6e dd bb f8 ee 4f 3e 47 1d f5 be
       -0.037933078 -0.0067575932 0.20306003 -0.478739
000050 d9 6e 72 bf b8 2a 7f 3e ea 30 0d bf 3b 3f a5 3e
       -0.9470039 0.2491864 -0.5515276 0.32274804
000060 5b 55 3c 3e ef 4c 92 3e 08 fc ec bd c0 46 c0 be
       0.18391936 0.2857432 -0.11571509 -0.37553978
000070 c3 c1 26 be 7f 96 8e 3d bd 7a 1a bf 57 53 21 3e
       -0.16284852 0.069622986 -0.60343534 0.15754448
000080 38 24 bd 3d ac e6 d1 bd 81 fe 79 bd c0 3b d8 be
       0.09235424 -0.10249075 -0.06103373 -0.42233086
000090 a5 40 9e be 54 0b 8f 3e 58 04 bd be 12 3b a4 3e
       -0.30908695 0.2793833 -0.36917377 0.32076317
0000a0 46 85 ab 3e 69 dc 3c bf 9e 6f f6 3e 2a ef 93 3e
       0.33500117 -0.7377382 0.48132032 0.28893405
0000b0 13 88 bc be ea 20 94 3e e8 93 15 3f ed 36 1f 3c
       -0.36822566 0.2893136 0.5842881 0.009717685
0000c0 71 f0 25 bf 75 83 de be 8f 23 00 3e b4 fa fd 3d
       -0.6482001 -0.4345967 0.12513565 0.124013335
0000d0 a0 e3 b4 be 49 89 0f 3e 12 29 f7 be ba db 3e bd
       -0.35329914 0.14017214 -0.48273522 -0.046596266
0000e0 a0 71 80 3e 79 63 6e bf d9 4e 18 3f 0b ff 04 3f
       0.2508669 -0.93120533 0.5949531 0.51951665
0000f0 c7 95 92 bf 3e 58 bb bf e8 92 6b 3f 58 4a ec be
       -1.1451958 -1.4636304 0.92021036 -0.4615047
000100 28 31 ba be 35 b2 95 bf f9 6d 1d be 92 95 02 bf
       -0.36365628 -1.169501 -0.15373982 -0.51009476
000110 4a b0 02 3f 07 0d 21 be
       0.51050246 -0.15727626

classifier2.2.bias f4 [7]
000000 52 7a 6c 3c 83 7c b8 be 3d ce 56 be b8 a7 9b 3e
       0.01443346 -0.36032495 -0.20977111 0.30401397
000010 f9 d1 71 3d ca 0b ab bd be e2 c7 be
       0.059038136 -0.08351858 -0.39040178
